platform/pc/int8/dense-mnist/dense-mnist-int8.tflite (tflite, 104144 bytes, 2 tensors)

sequential/dense/MatMul i1 [128, 784] scale=0.0059858253 zero_point=0
0.0 -0.06584408 0.07781573 0.017957475 0.03591495 -0.011971651 0.0718299 0.041900776
0.059858255 -0.03591495 0.023943301 -0.059858255 0.08380155 0.07781573 -0.0059858253 0.023943301
-0.041900776 0.029929128 -0.011971651 -0.029929128 -0.059858255 -0.047886603 -0.011971651 0.0718299
0.05387243 0.047886603 -0.07781573 0.047886603 -0.029929128 0.05387243 0.03591495 -0.029929128
0.08978738 0.11971651 0.20950389 0.22746137 0.0718299 0.14964563 0.08380155 0.12570234
0.2334472 0.2334472 0.08380155 0.20351806 0.05387243 0.15563145 0.1676031 0.24541883
0.26337633 0.19753224 0.041900776 0.19753224 -0.029929128 0.041900776 -0.011971651 0.06584408
-0.0059858253 0.07781573 -0.0059858253 -0.017957475 0.12570234 0.0 0.1676031 0.21548972
0.22147554 -0.011971651 -0.023943301 0.16161728 0.08978738 0.059858255 0.07781573 0.041900776
-0.0059858253 -0.06584408 0.11971651 0.19753224 0.047886603 0.11971651 0.14964563 -0.029929128
0.07781573 -0.017957475 0.03591495 0.047886603 0.08380155 -0.011971651 -0.13767399 -0.047886603
-0.0718299 0.011971651 0.113730684 0.2813338 0.26936215 0.0 0.059858255 0.029929128
0.10175903 0.2873196 0.3352062 0.13767399 0.07781573 0.047886603 0.03591495 0.029929128
0.0718299 -0.047886603 -0.029929128 -0.023943301 -0.03591495 -0.023943301 -0.0059858253 0.0
0.07781573 -0.023943301 -0.10774486 -0.0059858253 -0.03591495 0.029929128 0.1436598 -0.011971651
-0.13767399 -0.07781573 -0.06584408 0.011971651 0.029929128 0.041900776 0.14964563 0.095773205
0.06584408 -0.041900776 -0.11971651 -0.03591495 -0.11971651 -0.13767399 -0.32922038 -0.10175903
-0.06584408 -0.023943301 -0.08380155 -0.0059858253 0.0718299 -0.07781573 0.0059858253 -0.06584408
-0.12570234 -0.041900776 0.12570234 0.041900776 -0.15563145 0.095773205 0.13168816 -0.08380155
-0.19753224 -0.22746137 -0.21548972 -0.08978738 -0.16161728 -0.15563145 -0.11971651 -0.15563145
-0.20351806 -0.19753224 -0.29330543 -0.27534798 -0.08978738 -0.059858255 -0.095773205 0.029929128
-0.041900776 0.06584408 0.095773205 0.17957476 0.023943301 -0.1436598 -0.08978738 -0.011971651
-0.06584408 -0.08978738 -0.08380155 -0.10774486 -0.20351806 0.0 0.017957475 0.023943301
0.12570234 -0.0059858253 -0.059858255 -0.21548972 -0.20950389 -0.10774486 -0.32323456 -0.36513534
-0.27534798 -0.16161728 -0.05387243 -0.06584408 0.0 0.05387243 0.10175903 0.029929128
-0.0718299 -0.113730684 0.047886603 0.0059858253 -0.05387243 -0.16161728 -0.017957475 -0.05387243
0.10175903 0.0718299 0.24541883 0.20950389 0.059858255 0.047886603 0.017957475 -0.12570234
-0.12570234 -0.10175903 -0.38907865 -0.35914952 -0.31724873 -0.23943302 -0.17358893 -0.11971651
0.17358893 0.10774486 -0.011971651 0.095773205 0.10175903 -0.05387243 0.05387243 0.0
-0.05387243 -0.029929128 -0.0059858253 0.06584408 -0.029929128 0.11971651 0.07781573 0.17358893
0.041900776 0.0 -0.0059858253 -0.0718299 0.029929128 -0.03591495 -0.2334472 -0.35914952
-0.29330543 -0.30527708 -0.19154641 -0.07781573 0.0059858253 0.14964563 0.08380155 0.08978738
00000000: 00f5 0d03 06fe 0c07 0afa 04f6 0e0d ff04
00000010: f905 fefb f6f8 fe0c 0908 f308 fb09 06fb
00000020: 0f14 2326 0c19 0e15 2727 0e22 091a 1c29
00000030: 2c21 0721 fb07 fe0b ff0d fffd 1500 1c24
00000040: 25fe fc1b 0f0a 0d07 fff5 1421 0814 19fb
00000050: 0dfd 0608 0efe e9f8 f402 132f 2d00 0a05
00000060: 1130 3817 0d08 0605 0cf8 fbfc fafc ff00
00000070: 0dfc eeff fa05 18fe e9f3 f502 0507 1910
00000080: 0bf9 ecfa ece9 c9ef f5fc f2ff 0cf3 01f5
00000090: ebf9 1507 e610 16f2 dfda dcf1 e5e6 ece6
000000a0: dedf cfd2 f1f6 f005 f90b 101e 04e8 f1fe
000000b0: f5f1 f2ee de00 0304 15ff f6dc ddee cac3
000000c0: d2e5 f7f5 0009 1105 f4ed 0801 f7e5 fdf7
000000d0: 110c 2923 0a08 03eb ebef bfc4 cbd8 e3ec
000000e0: 1d12 fe10 11f7 0900 f7fb ff0b fb14 0d1d
000000f0: 0700 fff4 05fa d9c4 cfcd e0f3 0119 0e0f

sequential/dense_1/MatMul i1 [10, 128] scale=0.0068094395 zero_point=0
0.4289947 -0.28599647 -0.25194925 0.027237758 0.30642477 0.17023599 -0.5311363 0.29961532
-0.040856637 0.14980766 -0.13618879 0.29961532 0.3268531 -0.33366254 0.13618879 -0.1906643
0.0068094395 -0.52432686 -0.21109262 0.3132342 -0.29961532 -0.23152095 0.0 -0.2587587
-0.24513982 0.14980766 0.09533215 0.14299823 0.09533215 -0.17704543 0.18385486 -0.061284956
-0.34728143 0.013618879 -0.1906643 -0.18385486 -0.24513982 0.068094395 -0.17704543 -0.20428318
0.10895103 -0.081713274 -0.27918702 -0.44261357 0.23152095 -0.36770973 -0.21790206 -0.44261357
-0.44942302 0.24513982 -0.18385486 -0.08852272 -0.33366254 0.061284956 -0.6605156 -0.40175694
-0.034047198 -0.21790206 -0.4153758 0.10214159 -0.40175694 0.12937935 -0.115760475 -0.29961532
0.061284956 0.081713274 0.23833038 -0.16342655 0.1906643 0.13618879 -0.6400873 -0.32004365
0.054475516 0.1906643 -0.22471151 -0.14980766 -0.14299823 0.20428318 -0.17023599 0.14299823
-0.61284953 -0.3132342 -0.07490383 -0.2928059 0.20428318 -0.08852272 -0.081713274 -0.53794575
0.034047198 -0.1906643 0.08852272 -0.36770973 0.10214159 0.08852272 0.12256991 -0.18385486
-0.46985132 0.3268531 -0.33366254 -0.29961532 0.19747375 -0.20428318 0.23152095 -0.44942302
0.26556814 0.20428318 0.23833038 -0.52432686 -0.08852272 -0.17704543 0.16342655 0.14980766
0.0068094395 0.12256991 -0.17023599 -0.34728143 -0.53794575 0.12937935 0.27918702 0.1566171
-0.57199293 -0.28599647 0.0068094395 0.12256991 0.22471151 -0.46985132 0.20428318 0.18385486
0.040856637 -0.34047198 0.56518346 0.19747375 0.43580413 -0.37451917 0.12937935 -0.034047198
-0.21790206 -0.59242123 0.1906643 0.28599647 -0.6605156 0.16342655 -0.08852272 0.054475516
-0.30642477 -0.37451917 0.3268531 0.4289947 0.21790206 -0.013618879 0.21109262 -0.27918702
0.034047198 -0.14299823 0.054475516 0.18385486 0.013618879 0.061284956 -0.55837405 0.1566171
-0.34047198 -0.56518346 -0.29961532 0.1906643 -0.47666076 -0.49027964 -0.09533215 0.26556814
-0.054475516 0.09533215 0.21109262 0.0 -0.28599647 0.10895103 0.18385486 -0.45623246
0.040856637 0.0068094395 0.12937935 0.10895103 0.26556814 0.2587587 -0.08852272 0.32004365
-0.5856118 0.40175694 0.14299823 0.034047198 0.19747375 0.14299823 -0.0068094395 0.29961532
-0.4153758 -0.32004365 -0.38813806 -0.5515646 -0.35409087 -0.40175694 0.14299823 0.2928059
0.22471151 -0.70137227 -0.2587587 0.10214159 -0.24513982 0.0 0.12256991 0.07490383
-0.27237758 0.17023599 0.09533215 0.3268531 -0.19747375 0.10895103 -0.33366254 -0.5311363
-0.115760475 0.27918702 -0.73541945 0.36770973 -0.42218524 0.081713274 0.40175694 0.55837405
0.2928059 -0.21109262 0.027237758 -0.18385486 -0.013618879 -0.23833038 -0.36090028 0.13618879
-0.3949475 0.14980766 -0.42218524 0.13618879 -0.10214159 -0.5515646 0.14980766 -0.027237758
-0.047666077 -0.37451917 0.24513982 0.061284956 0.3132342 0.14299823 0.36770973 -0.13618879
0.115760475 0.45623246 -0.21790206 -0.23833038 -0.17704543 0.13618879 0.21109262 0.061284956
00000000: 3fd6 db04 2d19 b22c fa16 ec2c 30cf 14e4
00000010: 01b3 e12e d4de 00da dc16 0e15 0ee6 1bf7
00000020: cd02 e4e5 dc0a e6e2 10f4 d7bf 22ca e0bf
00000030: be24 e5f3 cf09 9fc5 fbe0 c30f c513 efd4
00000040: 090c 23e8 1c14 a2d1 081c dfea eb1e e715
00000050: a6d2 f5d5 1ef3 f4b1 05e4 0dca 0f0d 12e5
00000060: bb30 cfd4 1de2 22be 271e 23b3 f3e6 1816
00000070: 0112 e7cd b113 2917 acd6 0112 21bb 1e1b
00000080: 06ce 531d 40c9 13fb e0a9 1c2a 9f18 f308
00000090: d3c9 303f 20fe 1fd7 05eb 081b 0209 ae17
000000a0: cead d41c bab8 f227 f80e 1f00 d610 1bbd
000000b0: 0601 1310 2726 f32f aa3b 1505 1d15 ff2c
000000c0: c3d1 c7af ccc5 152b 2199 da0f dc00 120b
000000d0: d819 0e30 e310 cfb2 ef29 9436 c20c 3b52
000000e0: 2be1 04e5 fedd cb14 c616 c214 f1af 16fc
000000f0: f9c9 2409 2e15 36ec 1143 e0dd e614 1f09
