platform/pc/int8/conv(OpenNNA-Paper)-mnist/Conv(OpenNNA-Paper)-Mnist-Int8.tflite (tflite, 85952 bytes, 4 tensors)

sequential_12/conv2d_26/Conv2D i1 [16, 3, 3, 1]
000000 65 10 e0 b3 81 c8 09 34 65 14 61 22 cc 1d 5b 81
       101 16 -32 -77 -127 -56 9 52 101 20 97 34 -52 29 91 -127
000010 b3 22 2b 77 64 a0 ed 07 81 88 a7 24 81 a7 4a f2
       -77 34 43 119 100 -96 -19 7 -127 -120 -89 36 -127 -89 74 -14
000020 32 59 7c 11 cf 92 81 0c 0d 12 65 3c 66 df ed 44
       50 89 124 17 -49 -110 -127 12 13 18 101 60 102 -33 -19 68
000030 c0 b2 3c cd 81 67 ee 11 38 76 52 7f c2 86 99 53
       -64 -78 60 -51 -127 103 -18 17 56 118 82 127 -62 -122 -103 83
000040 7f f9 42 10 97 22 8f 97 76 26 b2 06 6c 54 81 16
       127 -7 66 16 -105 34 -113 -105 118 38 -78 6 108 84 -127 22
000050 1c 19 d8 32 2c 7f 72 f1 32 57 29 1b 81 3e 16 a0
       28 25 -40 50 44 127 114 -15 50 87 41 27 -127 62 22 -96
000060 35 38 d8 16 81 4d b9 b4 74 39 55 3b 40 17 64 0e
       53 56 -40 22 -127 77 -71 -76 116 57 85 59 64 23 100 14
000070 42 09 8a 81 8a 81 df 24 fc 67 2e 37 28 9b 81 0e
       66 9 -118 -127 -118 -127 -33 36 -4 103 46 55 40 -101 -127 14
000080 03 88 23 26 ad 0d 40 8c 17 29 01 7f fa 27 06 b8
       3 -120 35 38 -83 13 64 -116 23 41 1 127 -6 39 6 -72

sequential_12/conv2d_27/Conv2D i1 [32, 3, 3, 16]
000000 f5 ad bd f4 b0 b4 f4 2d 02 f4 10 d2 ed fd ba 1e
       -11 -83 -67 -12 -80 -76 -12 45 2 -12 16 -46 -19 -3 -70 30
000010 19 14 05 9b d2 06 de 05 d1 c2 d0 b6 34 cb f6 c3
       25 20 5 -101 -46 6 -34 5 -47 -62 -48 -74 52 -53 -10 -61
000020 36 18 d3 cb 01 12 c1 cb 1e ec bc f6 c8 fb 14 f7
       54 24 -45 -53 1 18 -63 -53 30 -20 -68 -10 -56 -5 20 -9
000030 31 22 04 0c 23 e1 2d de 32 06 07 0d 19 f3 f2 04
       49 34 4 12 35 -31 45 -34 50 6 7 13 25 -13 -14 4
000040 51 9f c5 08 22 0b f5 a9 e2 22 e4 1f d8 2a 06 2b
       81 -97 -59 8 34 11 -11 -87 -30 34 -28 31 -40 42 6 43
000050 fe c2 00 10 15 d1 09 39 d1 08 0b 23 32 2d 21 16
       -2 -62 0 16 21 -47 9 57 -47 8 11 35 50 45 33 22
000060 10 11 37 fc 0c 05 fc 12 11 ee 0a f0 0d f3 d3 04
       16 17 55 -4 12 5 -4 18 17 -18 10 -16 13 -13 -45 4
000070 5a e8 0f ea d5 de 1a 27 da 03 f7 ec 08 01 02 0f
       90 -24 15 -22 -43 -34 26 39 -38 3 -9 -20 8 1 2 15
000080 7f d6 f4 03 eb 28 f4 18 c9 df 13 fc ea be eb c0
       127 -42 -12 3 -21 40 -12 24 -55 -33 19 -4 -22 -66 -21 -64
000090 27 69 3a fe 1a 72 d8 bf 20 f4 b7 12 e6 ff 36 e2
       39 105 58 -2 26 114 -40 -65 32 -12 -73 18 -26 -1 54 -30
0000a0 bb 52 be 31 0b 43 02 21 33 0d 57 1f 96 30 42 1b
       -69 82 -66 49 11 67 2 33 51 13 87 31 -106 48 66 27
0000b0 8c c2 d7 0a c6 98 19 f7 15 eb 09 fb e6 dd db cb
       -116 -62 -41 10 -58 -104 25 -9 21 -21 9 -5 -26 -35 -37 -53
0000c0 2c 14 db 03 0c 14 f0 f3 fd 15 bf 3c db 1a 3d 31
       44 20 -37 3 12 20 -16 -13 -3 21 -65 60 -37 26 61 49
0000d0 ce 03 d2 d3 de 3d 09 24 e4 12 31 eb d4 39 4b 48
       -50 3 -46 -45 -34 61 9 36 -28 18 49 -21 -44 57 75 72
0000e0 e7 b0 c6 c9 81 ce ef 09 d6 ca f9 d3 e8 d9 f6 d8
       -25 -80 -58 -55 -127 -50 -17 9 -42 -54 -7 -45 -24 -39 -10 -40
0000f0 e6 c4 bd ef df cd 1f 58 c0 f5 ee 06 de 2f 20 34
       -26 -60 -67 -17 -33 -51 31 88 -64 -11 -18 6 -34 47 32 52

sequential_12/dense_26/MatMul i1 [64, 1152] scale=0.005728339 zero_point=0
000000 fc 07 f9 ea ed ff dc f1 fc 05 f3 da f3 02 fe f3
       -0.022913355 0.040098373 -0.040098373 -0.12602346 -0.10883844 -0.005728339 -0.2062202 -0.08592508 -0.022913355 0.028641693 -0.074468404 -0.21767688 -0.074468404 0.011456678 -0.011456678 -0.074468404
000010 f0 ef e9 fd 05 0b f9 f1 e4 0a 03 fd 08 f4 fc f8
       -0.09165342 -0.09738176 -0.13175179 -0.017185017 0.028641693 0.06301173 -0.040098373 -0.08592508 -0.16039349 0.057283387 0.017185017 -0.017185017 0.04582671 -0.06874007 -0.022913355 -0.04582671
000020 fc e5 f6 eb 0c 06 c6 c7 ec ec d5 07 e3 fe f5 f0
       -0.022913355 -0.15466514 -0.057283387 -0.120295115 0.06874007 0.034370035 -0.33224365 -0.32651532 -0.11456677 -0.11456677 -0.24631856 0.040098373 -0.16612183 -0.011456678 -0.06301173 -0.09165342
000030 d7 08 fd b6 ff f2 eb 05 1a 1b ff 0c cd 08 1f e2
       -0.2348619 0.04582671 -0.017185017 -0.4238971 -0.005728339 -0.080196746 -0.120295115 0.028641693 0.14893681 0.15466514 -0.005728339 0.06874007 -0.29214528 0.04582671 0.17757851 -0.17185016
000040 01 d8 1c ee d0 10 ca dc 15 09 1c 11 f7 19 02 28
       0.005728339 -0.22913355 0.16039349 -0.1031101 -0.27496028 0.09165342 -0.30933028 -0.2062202 0.120295115 0.05155505 0.16039349 0.09738176 -0.05155505 0.14320847 0.011456678 0.22913355
000050 11 15 ff de d0 0a f6 11 f3 26 0b 2d e7 e4 0b 08
       0.09738176 0.120295115 -0.005728339 -0.19476353 -0.27496028 0.057283387 -0.057283387 0.09738176 -0.074468404 0.21767688 0.06301173 0.25777525 -0.14320847 -0.16039349 0.06301173 0.04582671
000060 fd 21 eb 12 12 e2 ed 0a 0d e1 00 2e 2b 11 0d fd
       -0.017185017 0.18903518 -0.120295115 0.1031101 0.1031101 -0.17185016 -0.10883844 0.057283387 0.074468404 -0.17757851 0.0 0.26350358 0.24631856 0.09738176 0.074468404 -0.017185017
000070 0e 0d e6 03 16 09 1b fe f3 fc 0b ff 10 11 ca 0b
       0.080196746 0.074468404 -0.14893681 0.017185017 0.12602346 0.05155505 0.15466514 -0.011456678 -0.074468404 -0.022913355 0.06301173 -0.005728339 0.09165342 0.09738176 -0.30933028 0.06301173
000080 ed e9 f2 0d 26 f0 db 07 0c e6 ef ea ef e4 f5 14
       -0.10883844 -0.13175179 -0.080196746 0.074468404 0.21767688 -0.09165342 -0.21194854 0.040098373 0.06874007 -0.14893681 -0.09738176 -0.12602346 -0.09738176 -0.16039349 -0.06301173 0.11456677
000090 f0 ff f1 1f 36 e8 f1 eb 0d d2 14 f2 e8 00 f5 15
       -0.09165342 -0.005728339 -0.08592508 0.17757851 0.30933028 -0.13748014 -0.08592508 -0.120295115 0.074468404 -0.26350358 0.11456677 -0.080196746 -0.13748014 0.0 -0.06301173 0.120295115
0000a0 ee f9 cb 1c 12 10 ff 03 f4 06 de ee d4 07 f6 e4
       -0.1031101 -0.040098373 -0.30360195 0.16039349 0.1031101 0.09165342 -0.005728339 0.017185017 -0.06874007 0.034370035 -0.19476353 -0.1031101 -0.2520469 0.040098373 -0.057283387 -0.16039349
0000b0 fb 00 e2 12 11 c5 f3 f6 00 e5 00 ef 25 21 d1 12
       -0.028641693 0.0 -0.17185016 0.1031101 0.09738176 -0.337972 -0.074468404 -0.057283387 0.0 -0.15466514 0.0 -0.09738176 0.21194854 0.18903518 -0.26923192 0.1031101
0000c0 f4 fb 2b fb 15 f2 ea f3 14 ea b9 f2 0c ec 08 f1
       -0.06874007 -0.028641693 0.24631856 -0.028641693 0.120295115 -0.080196746 -0.12602346 -0.074468404 0.11456677 -0.12602346 -0.40671206 -0.080196746 0.06874007 -0.11456677 0.04582671 -0.08592508
0000d0 fb 12 f5 e9 0e 0a f8 23 06 ff 02 1b fa eb fd e1
       -0.028641693 0.1031101 -0.06301173 -0.13175179 0.080196746 0.057283387 -0.04582671 0.20049186 0.034370035 -0.005728339 0.011456678 0.15466514 -0.034370035 -0.120295115 -0.017185017 -0.17757851
0000e0 ff e6 0e 00 de 16 f3 fc 0b 35 13 e6 1d fc 13 f2
       -0.005728339 -0.14893681 0.080196746 0.0 -0.19476353 0.12602346 -0.074468404 -0.022913355 0.06301173 0.30360195 0.10883844 -0.14893681 0.16612183 -0.022913355 0.10883844 -0.080196746
0000f0 f3 01 f9 01 28 1b 0b 1c 0f 0b f0 18 f5 f9 16 0a
       -0.074468404 0.005728339 -0.040098373 0.005728339 0.22913355 0.15466514 0.06301173 0.16039349 0.08592508 0.06301173 -0.09165342 0.13748014 -0.06301173 -0.040098373 0.12602346 0.057283387

sequential_12/dense_27/MatMul i1 [10, 64] scale=0.0060862545 zero_point=0
000000 1f fa 07 bd 26 2e 18 f5 dd 06 b9 dc 32 c7 36 26
       0.18867388 -0.036517527 0.042603783 -0.40777904 0.23127767 0.2799677 0.14607011 -0.0669488 -0.21301891 0.036517527 -0.43212408 -0.21910515 0.30431274 -0.3469165 0.32865775 0.23127767
000010 15 cb b4 2a 2e 2f 10 44 df e0 25 2e 27 0b 23 0f
       0.12781134 -0.3225715 -0.46255535 0.25562268 0.2799677 0.28605396 0.09738007 0.4138653 -0.2008464 -0.19476014 0.22519141 0.2799677 0.23736392 0.0669488 0.21301891 0.09129382
000020 eb a7 39 da 27 b5 f6 21 3e 0a d6 05 2a 03 e9 06
       -0.12781134 -0.54167664 0.3469165 -0.23127767 0.23736392 -0.4564691 -0.060862545 0.2008464 0.37734777 0.060862545 -0.25562268 0.030431272 0.25562268 0.018258763 -0.13998385 0.036517527
000030 0d b8 bc 12 b7 09 e4 33 12 a4 cc 1e e2 0c ed 02
       0.07912131 -0.4382103 -0.4138653 0.10955258 -0.44429657 0.05477629 -0.17041513 0.31039897 0.10955258 -0.5599354 -0.31648523 0.18258764 -0.18258764 0.073035054 -0.11563884 0.012172509
000040 e3 14 d4 02 27 d7 ee 28 0f c3 ba f7 ee 2c 14 11
       -0.17650138 0.12172509 -0.2677952 0.012172509 0.23736392 -0.24953644 -0.10955258 0.24345018 0.09129382 -0.37126154 -0.42603782 -0.05477629 -0.10955258 0.2677952 0.12172509 0.103466325
000050 02 0f 23 ec e2 ff 2e ed 12 21 1f 96 fd 1f 1c 13
       0.012172509 0.09129382 0.21301891 -0.12172509 -0.18258764 -0.0060862545 0.2799677 -0.11563884 0.10955258 0.2008464 0.18867388 -0.645143 -0.018258763 0.18867388 0.17041513 0.11563884
000060 d6 40 0c 47 dc 10 01 39 1f 1d dd 29 09 19 9b c9
       -0.25562268 0.3895203 0.073035054 0.43212408 -0.21910515 0.09738007 0.0060862545 0.3469165 0.18867388 0.17650138 -0.21301891 0.24953644 0.05477629 0.15215637 -0.6147117 -0.334744
000070 59 f7 0f 11 d1 b5 ed d3 f0 17 05 02 1d 2c f6 19
       0.54167664 -0.05477629 0.09129382 0.103466325 -0.28605396 -0.4564691 -0.11563884 -0.27388147 -0.09738007 0.13998385 0.030431272 0.012172509 0.17650138 0.2677952 -0.060862545 0.15215637
000080 f1 18 11 20 bd 24 0b 0a 0c d1 e5 34 2d 0a a4 12
       -0.09129382 0.14607011 0.103466325 0.19476014 -0.40777904 0.21910515 0.0669488 0.060862545 0.073035054 -0.28605396 -0.16432887 0.31648523 0.27388147 0.060862545 -0.5599354 0.10955258
000090 00 b7 13 29 20 2d f2 25 0b 13 ef 18 e4 a2 97 21
       0.0 -0.44429657 0.11563884 0.24953644 0.19476014 0.27388147 -0.08520757 0.22519141 0.0669488 0.11563884 -0.103466325 0.14607011 -0.17041513 -0.5721079 -0.63905674 0.2008464
0000a0 27 1c c4 1c 07 b2 16 33 2f 37 b9 22 f9 39 c5 33
       0.23736392 0.17041513 -0.36517528 0.17041513 0.042603783 -0.47472784 0.1338976 0.31039897 0.28605396 0.334744 -0.43212408 0.20693265 -0.042603783 0.3469165 -0.35908902 0.31039897
0000b0 a4 c6 e2 04 3a 01 be 29 a2 d9 91 c4 09 1f fb 0c
       -0.5599354 -0.35300276 -0.18258764 0.024345018 0.35300276 0.0060862545 -0.4016928 0.24953644 -0.5721079 -0.23736392 -0.67557424 -0.36517528 0.05477629 0.18867388 -0.030431272 0.073035054
0000c0 06 e7 c6 27 c8 cf 0a e1 03 38 1e 28 bb a1 f1 2c
       0.036517527 -0.15215637 -0.35300276 0.23736392 -0.34083027 -0.29822648 0.060862545 -0.18867388 0.018258763 0.34083027 0.18258764 0.24345018 -0.41995156 -0.5781942 -0.09129382 0.2677952
0000d0 15 cf 2d 32 29 d0 37 cf 1f c3 46 24 e2 ca dc b5
       0.12781134 -0.29822648 0.27388147 0.30431274 0.24953644 -0.29214022 0.334744 -0.29822648 0.18867388 -0.37126154 0.42603782 0.21910515 -0.18258764 -0.32865775 -0.21910515 -0.4564691
0000e0 11 14 f7 f4 2c 0f b7 2d ef b8 06 1d 32 f9 cd 09
       0.103466325 0.12172509 -0.05477629 -0.073035054 0.2677952 0.09129382 -0.44429657 0.27388147 -0.103466325 -0.4382103 0.036517527 0.17650138 0.30431274 -0.042603783 -0.31039897 0.05477629
0000f0 c6 ce 36 aa 09 e4 ba ba d3 37 23 d8 d4 bb f6 d0
       -0.35300276 -0.30431274 0.32865775 -0.5234179 0.05477629 -0.17041513 -0.42603782 -0.42603782 -0.27388147 0.334744 0.21301891 -0.24345018 -0.2677952 -0.41995156 -0.060862545 -0.29214022
